Model summary:
====================================================================================================
Layer (type:depth-idx)                             Output Shape              Param #
====================================================================================================
DeepLabV3Plus                                      [1, 20, 1024, 2048]       --
├─ResNet: 1-1                                      [1, 2048, 64, 128]        --
│    └─Sequential: 2-1                             --                        --
│    │    └─Sequential: 3-1                        [1, 64, 256, 512]         9,536
│    │    └─Sequential: 3-2                        [1, 256, 256, 512]        215,808
│    │    └─Sequential: 3-3                        [1, 512, 128, 256]        1,219,584
│    │    └─Sequential: 3-4                        [1, 1024, 64, 128]        7,098,368
│    │    └─Sequential: 3-5                        [1, 2048, 64, 128]        14,964,736
├─Sequential: 1-2                                  [1, 128, 128, 256]        --
│    └─Conv2d: 2-2                                 [1, 128, 128, 256]        65,664
│    └─BatchNorm2d: 2-3                            [1, 128, 128, 256]        256
│    └─ReLU: 2-4                                   [1, 128, 128, 256]        --
├─ASPP: 1-3                                        [1, 256, 64, 128]         --
│    └─ModuleList: 2-5                             --                        --
│    │    └─Sequential: 3-6                        [1, 128, 64, 128]         262,528
│    │    └─ASPPConv: 3-7                          [1, 128, 64, 128]         2,359,680
│    │    └─ASPPConv: 3-8                          [1, 128, 64, 128]         2,359,680
│    │    └─ASPPConv: 3-9                          [1, 128, 64, 128]         2,359,680
│    │    └─ASPPPooling: 3-10                      [1, 128, 64, 128]         262,528
│    └─Sequential: 2-6                             [1, 256, 64, 128]         --
│    │    └─Conv2d: 3-11                           [1, 256, 64, 128]         164,096
│    │    └─BatchNorm2d: 3-12                      [1, 256, 64, 128]         512
│    │    └─ReLU: 3-13                             [1, 256, 64, 128]         --
├─Sequential: 1-4                                  [1, 256, 128, 256]        --
│    └─Conv2d: 2-7                                 [1, 256, 128, 256]        884,992
│    └─BatchNorm2d: 2-8                            [1, 256, 128, 256]        512
│    └─ReLU: 2-9                                   [1, 256, 128, 256]        --
├─Sequential: 1-5                                  [1, 20, 1024, 2048]       --
│    └─Conv2d: 2-10                                [1, 256, 1024, 2048]      590,080
│    └─BatchNorm2d: 2-11                           [1, 256, 1024, 2048]      512
│    └─ReLU: 2-12                                  [1, 256, 1024, 2048]      --
│    └─Conv2d: 2-13                                [1, 20, 1024, 2048]       5,140
====================================================================================================
Total params: 32,823,892
Trainable params: 32,823,892
Non-trainable params: 0
Total mult-adds (T): 1.60
====================================================================================================
Input size (MB): 25.17
Forward/backward pass size (MB): 17716.74
Params size (MB): 131.30
Estimated Total Size (MB): 17873.20
…
